…
yName":"Roboticol","photoUrl":"https://lh3.googleusercontent.com/a-/AOh14GgtLc9CUpbcOt0QksnQPWAvsVnbfsZfZKIxhTGv6A=s64","userId":"08106487152910094351"}},"colab":{"base_uri":"https://localhost:8080/"},"outputId":"bf0eee2b-675a-4cfc-af9b-806d19cfe063"},"execution_count":18,"outputs":[{"output_type":"stream","name":"stdout","text":["Model: \"sequential_2\"\n","_________________________________________________________________\n"," Layer (type)                Output Shape              Param #   \n","=================================================================\n"," sequential (Sequential)     (32, 256, 256, 3)         0         \n","                                                                 \n"," conv2d (Conv2D)             (32, 254, 254, 32)        896       \n","                                                                 \n"," max_pooling2d (MaxPooling2D  (32, 127, 127, 32)       0         \n"," )                                                               \n","                                                                 \n"," conv2d_1 (Conv2D)           (32, 125, 125, 64)        18496     \n","                                                                 \n"," max_pooling2d_1 (MaxPooling  (32, 62, 62, 64)         0         \n"," 2D)                                                             \n","                                                                 \n"," conv2d_2 (Conv2D)           (32, 60, 60, 64)          36928     \n","                                                                 \n"," max_pooling2d_2 (MaxPooling  (32, 30, 30, 64)         0         \n"," 2D)                                                             \n","                                                                 \n"," conv2d_3 (Conv2D)           (32, 28, 28, 64)          36928     \n","                                                                 \n"," max_pooling2d_3 (MaxPooling  (32, 14, 14, 64)         0         \n"," 2D)                                                             \n","                                                                 \n"," conv2d_4 (Conv2D)           (32, 12, 12, 64)          36928     \n","                                                                 \n"," max_pooling2d_4 (MaxPooling  (32, 6, 6, 64)           0         \n"," 2D)                                                             \n","                                                                 \n"," conv2d_5 (Conv2D)           (32, 4, 4, 64)            36928     \n","                                                                 \n"," max_pooling2d_5 (MaxPooling  (32, 2, 2, 64)           0         \n"," 2D)                                                             \n","                                                                 \n"," flatten (Flatten)           (32, 256)                 0         \n","                                                                 \n"," dense (Dense)               (32, 64)                  16448     \n","                                                                 \n"," dense_1 (Dense)             (32, 6)                   390       \n","                                                                 \n","=================================================================\n","Total params: 183,942\n","Trainable params: 183,942\n","Non-trainable params: 0\n","_________________________________________________________________\n"]}]},{"cell_type":"code","source":["model.compile(\n","    optimizer='adam',\n","    loss=tf.ker
…
